example_kws_audio_spotting/app/src/main/cpp/tflite-model/tflite_learn_42047_8.tflite (tflite, 8400 bytes, 3 tensors)

sequential/y_pred/MatMul;StatefulPartitionedCall/sequential/y_pred/MatMul i1 [3, 400] scale=0.009373338 zero_point=0
0	0xf7	-0.08436004
1	0x0e	0.13122673
2	0xcb	-0.49678692
3	0xef	-0.15934674
4	0xf6	-0.09373338
5	0x11	0.15934674
6	0x22	0.3186935
7	0x32	0.4686669
8	0x0f	0.14060007
9	0xfb	-0.04686669
10	0x07	0.06561337
11	0x16	0.20621343
12	0x10	0.1499734
13	0xe0	-0.2999468
14	0x07	0.06561337
15	0x1f	0.29057348
16	0xfa	-0.05624003
17	0x21	0.30932015
18	0xcb	-0.49678692
19	0xe8	-0.22496012
20	0xf8	-0.0749867
21	0x11	0.15934674
22	0xfe	-0.018746676
23	0x2e	0.43117353
24	0x0a	0.09373338
25	0xef	-0.15934674
26	0x0a	0.09373338
27	0x31	0.45929357
28	0x0a	0.09373338
29	0xb5	-0.70300037
30	0xe7	-0.23433346
31	0x1d	0.2718268
32	0x00	0.0
33	0x1c	0.26245347
34	0xa9	-0.8154804
35	0xc2	-0.58114696
36	0xe1	-0.29057348
37	0x02	0.018746676
38	0xf5	-0.103106715
39	0x25	0.3468135
40	0x09	0.08436004
41	0xfd	-0.028120015
42	0x11	0.15934674
43	0x23	0.32806683
44	0xf3	-0.1218534
45	0xc7	-0.53428024
46	0xeb	-0.19684009
47	0x2d	0.4218002
48	0x0f	0.14060007
49	0xf7	-0.08436004
50	0x05	0.04686669
51	0xec	-0.18746676
52	0xdd	-0.32806683
53	0xe6	-0.2437068
54	0xd9	-0.36556017
55	0x2c	0.41242686
56	0x0d	0.1218534
57	0xef	-0.15934674
58	0x0e	0.13122673
59	0x0b	0.103106715
60	0xf2	-0.13122673
61	0x1c	0.26245347
62	0xec	-0.18746676
63	0x19	0.23433346
64	0x12	0.16872008
65	0x21	0.30932015
66	0x0d	0.1218534
67	0xe4	-0.26245347
68	0xf9	-0.06561337
69	0xff	-0.009373338
70	0xf4	-0.11248006
71	0x1a	0.2437068
72	0x09	0.08436004
73	0x03	0.028120015
74	0x04	0.03749335
75	0x28	0.3749335
76	0x08	0.0749867
77	0x16	0.20621343
78	0x07	0.06561337
79	0x1f	0.29057348
80	0x24	0.33744016
81	0x27	0.36556017
82	0x18	0.22496012
83	0x04	0.03749335
84	0x11	0.15934674
85	0xf5	-0.103106715
86	0x00	0.0
87	0x16	0.20621343
88	0x06	0.05624003
89	0xfc	-0.03749335
90	0x0d	0.1218534
91	0x1a	0.2437068
92	0x07	0.06561337
93	0x09	0.08436004
94	0x0e	0.13122673
95	0x08	0.0749867
96	0xef	-0.15934674
97	0x12	0.16872008
98	0x0b	0.103106715
99	0x0e	0.13122673
100	0x0d	0.1218534
101	0xf7	-0.08436004
102	0x16	0.20621343
103	0x32	0.4686669
104	0x03	0.028120015
105	0xe6	-0.2437068
106	0xf4	-0.11248006
107	0x2f	0.44054687
108	0x04	0.03749335
109	0x17	0.21558677
110	0xee	-0.16872008
111	0x20	0.2999468
112	0xf3	-0.1218534
113	0x00	0.0
114	0xfc	-0.03749335
115	0x10	0.1499734
116	0x08	0.0749867
117	0xef	-0.15934674
118	0x04	0.03749335
119	0x06	0.05624003
120	0xf4	-0.11248006
121	0x04	0.03749335
122	0xf9	-0.06561337
123	0x07	0.06561337
124	0xf5	-0.103106715
125	0x19	0.23433346
126	0x10	0.1499734
127	0x15	0.19684009
128	0xeb	-0.19684009
129	0xf6	-0.09373338
130	0x0f	0.14060007
131	0x0a	0.09373338
132	0x06	0.05624003
133	0xe5	-0.25308013
134	0xff	-0.009373338
135	0x27	0.36556017
136	0xff	-0.009373338
137	0xf9	-0.06561337
138	0x06	0.05624003
139	0x0c	0.11248006
140	0xf3	-0.1218534
141	0x03	0.028120015
142	0xfc	-0.03749335
143	0xfc	-0.03749335
144	0xf8	-0.0749867
145	0xee	-0.16872008
146	0xf3	-0.1218534
147	0x04	0.03749335
148	0x11	0.15934674
149	0xc9	-0.51553357
150	0xf5	-0.103106715
151	0xfe	-0.018746676
152	0xfe	-0.018746676
153	0xf4	-0.11248006
154	0xf8	-0.0749867
155	0xf6	-0.09373338
156	0xee	-0.16872008
157	0x00	0.0
158	0xfd	-0.028120015
159	0x0d	0.1218534
160	0xe3	-0.2718268
161	0xf8	-0.0749867
162	0xee	-0.16872008
163	0xfd	-0.028120015
164	0x07	0.06561337
165	0xf8	-0.0749867
166	0x18	0.22496012
167	0x05	0.04686669
168	0x03	0.028120015
169	0xf5	-0.103106715
170	0xf3	-0.1218534
171	0x07	0.06561337
172	0xf8	-0.0749867
173	0x00	0.0
174	0x06	0.05624003
175	0xe7	-0.23433346
176	0xd4	-0.41242686
177	0xf8	-0.0749867
178	0xdf	-0.30932015
179	0xf5	-0.103106715
180	0x0f	0.14060007
181	0xf9	-0.06561337
182	0x04	0.03749335
183	0xf2	-0.13122673
184	0xec	-0.18746676
185	0xff	-0.009373338
186	0xf1	-0.14060007
187	0xf2	-0.13122673
188	0xea	-0.20621343
189	0x08	0.0749867
190	0xf2	-0.13122673
191	0xe6	-0.2437068
192	0xe8	-0.22496012
193	0xf5	-0.103106715
194	0xdd	-0.32806683
195	0xf2	-0.13122673
196	0x02	0.018746676
197	0x15	0.19684009
198	0xe8	-0.22496012
199	0x15	0.19684009
200	0xf2	-0.13122673
201	0xf1	-0.14060007
202	0x12	0.16872008
203	0xe8	-0.22496012
204	0xe3	-0.2718268
205	0xef	-0.15934674
206	0xf2	-0.13122673
207	0x03	0.028120015
208	0xdf	-0.30932015
209	0xcc	-0.4874136
210	0xe3	-0.2718268
211	0x15	0.19684009
212	0x16	0.20621343
213	0x1e	0.28120014
214	0x1d	0.2718268
215	0xfc	-0.03749335
216	0x03	0.028120015
217	0x1e	0.28120014
218	0x02	0.018746676
219	0xfd	-0.028120015
220	0x20	0.2999468
221	0xdb	-0.3468135
222	0x0f	0.14060007
223	0xeb	-0.19684009
224	0xe0	-0.2999468
225	0xd5	-0.40305352
226	0xcf	-0.45929357
227	0x10	0.1499734
228	0x20	0.2999468
229	0x24	0.33744016
230	0x15	0.19684009
231	0x2b	0.40305352
232	0x17	0.21558677
233	0x2f	0.44054687
234	0x0f	0.14060007
235	0x0b	0.103106715
236	0x0b	0.103106715
237	0xea	-0.20621343
238	0x14	0.18746676
239	0x04	0.03749335
240	0xcc	-0.4874136
241	0xfb	-0.04686669
242	0x27	0.36556017
243	0x16	0.20621343
244	0x0e	0.13122673
245	0x1e	0.28120014
246	0x0a	0.09373338
247	0x22	0.3186935
248	0x03	0.028120015
249	0xfc	-0.03749335
250	0x13	0.17809342
251	0xff	-0.009373338
252	0x12	0.16872008
253	0xd1	-0.44054687
254	0xe3	-0.2718268
255	0x00	0.0

sequential/conv1d/conv1d;StatefulPartitionedCall/sequential/conv1d/conv1d i1 [8, 1, 3, 13]
0	0xa3	-93
1	0x43	67
2	0x56	86
3	0xfc	-4
4	0xd7	-41
5	0xc1	-63
6	0xfd	-3
7	0xff	-1
8	0x2e	46
9	0xf8	-8
10	0xe5	-27
11	0x09	9
12	0x06	6
13	0xf4	-12
14	0x15	21
15	0x19	25
16	0xe2	-30
17	0xc0	-64
18	0xf4	-12
19	0x0f	15
20	0xfc	-4
21	0x0d	13
22	0x11	17
23	0x0a	10
24	0x1c	28
25	0xff	-1
26	0xb0	-80
27	0x16	22
28	0x1b	27
29	0xd1	-47
30	0x81	-127
31	0xfc	-4
32	0xe4	-28
33	0xde	-34
34	0x0e	14
35	0x05	5
36	0xe4	-28
37	0xff	-1
38	0xf3	-13
39	0x1c	28
40	0x2b	43
41	0xbe	-66
42	0xed	-19
43	0x4e	78
44	0xc8	-56
45	0x13	19
46	0xb7	-73
47	0xcb	-53
48	0x60	96
49	0x36	54
50	0xc8	-56
51	0x0c	12
52	0x2a	42
53	0xf8	-8
54	0xfb	-5
55	0xc5	-59
56	0x75	117
57	0x22	34
58	0x14	20
59	0xdf	-33
60	0x33	51
61	0xd9	-39
62	0xe3	-29
63	0x0a	10
64	0x25	37
65	0xf0	-16
66	0x15	21
67	0x0c	12
68	0x22	34
69	0x7f	127
70	0xf3	-13
71	0xa4	-92
72	0xb1	-79
73	0x44	68
74	0x1d	29
75	0x3b	59
76	0x82	-126
77	0x19	25
78	0xf9	-7
79	0x0f	15
80	0x91	-111
81	0x68	104
82	0xeb	-21
83	0xf3	-13
84	0xab	-85
85	0x57	87
86	0xef	-17
87	0xe8	-24
88	0x31	49
89	0x1d	29
90	0x06	6
91	0x29	41
92	0xec	-20
93	0x99	-103
94	0x62	98
95	0x19	25
96	0xf8	-8
97	0xdd	-35
98	0x00	0
99	0x48	72
100	0xf3	-13
101	0x1d	29
102	0xc7	-57
103	0xc7	-57
104	0x3a	58
105	0xd4	-44
106	0xbf	-65
107	0xcf	-49
108	0xa2	-94
109	0x81	-127
110	0x09	9
111	0xe1	-31
112	0xfc	-4
113	0x5b	91
114	0xe2	-30
115	0xf0	-16
116	0xff	-1
117	0xe0	-32
118	0x69	105
119	0x1b	27
120	0xfa	-6
121	0xff	-1
122	0x45	69
123	0x09	9
124	0x40	64
125	0xf6	-10
126	0xfa	-6
127	0x10	16
128	0x43	67
129	0xda	-38
130	0x30	48
131	0x7f	127
132	0xf4	-12
133	0x34	52
134	0x26	38
135	0x10	16
136	0xe7	-25
137	0x32	50
138	0x00	0
139	0xeb	-21
140	0xde	-34
141	0x0d	13
142	0xd5	-43
143	0x1b	27
144	0x5d	93
145	0x28	40
146	0x5b	91
147	0xec	-20
148	0xe0	-32
149	0xf8	-8
150	0x18	24
151	0x04	4
152	0xe5	-27
153	0x1a	26
154	0x12	18
155	0xe3	-29
156	0x08	8
157	0xeb	-21
158	0xf1	-15
159	0xf8	-8
160	0x5b	91
161	0x4c	76
162	0x4e	78
163	0x14	20
164	0x2e	46
165	0xeb	-21
166	0xa8	-88
167	0x33	51
168	0xf1	-15
169	0x11	17
170	0xa3	-93
171	0x9f	-97
172	0xf3	-13
173	0xe3	-29
174	0xd7	-41
175	0xf2	-14
176	0xbd	-67
177	0xfc	-4
178	0xfa	-6
179	0xc7	-57
180	0xb5	-75
181	0x3e	62
182	0x0b	11
183	0xaf	-81
184	0x38	56
185	0xb2	-78
186	0x01	1
187	0xd3	-45
188	0x46	70
189	0xbd	-67
190	0xe2	-30
191	0xea	-22
192	0x4f	79
193	0x11	17
194	0x81	-127
195	0xfb	-5
196	0x2e	46
197	0xb9	-71
198	0xf7	-9
199	0x20	32
200	0x17	23
201	0x07	7
202	0x13	19
203	0x1f	31
204	0xfa	-6
205	0x2f	47
206	0xea	-22
207	0x14	20
208	0xf7	-9
209	0xcf	-49
210	0xcf	-49
211	0x1b	27
212	0x4b	75
213	0xc5	-59
214	0x10	16
215	0xe5	-27
216	0x3d	61
217	0x43	67
218	0x36	54
219	0x3f	63
220	0xb9	-71
221	0x4e	78
222	0x97	-105
223	0xb8	-72
224	0x24	36
225	0x68	104
226	0x28	40
227	0x81	-127
228	0xe1	-31
229	0x2d	45
230	0x08	8
231	0xff	-1
232	0x98	-104
233	0x13	19
234	0xed	-19
235	0x9c	-100
236	0x60	96
237	0x8c	-116
238	0xbb	-69
239	0x3e	62
240	0xb3	-77
241	0x04	4
242	0xe9	-23
243	0x20	32
244	0xe6	-26
245	0xed	-19
246	0x49	73
247	0x01	1
248	0x15	21
249	0xe0	-32
250	0xd3	-45
251	0xf3	-13
252	0x17	23
253	0xf3	-13
254	0x22	34
255	0x08	8

sequential/conv1d_1/conv1d;StatefulPartitionedCall/sequential/conv1d_1/conv1d i1 [16, 1, 3, 8]
0	0x20	32
1	0xbf	-65
2	0x81	-127
3	0x30	48
4	0x01	1
5	0x99	-103
6	0x15	21
7	0xc8	-56
8	0x3d	61
9	0xf5	-11
10	0x89	-119
11	0xef	-17
12	0x14	20
13	0x9d	-99
14	0xd9	-39
15	0xad	-83
16	0xfd	-3
17	0xdd	-35
18	0xb5	-75
19	0x20	32
20	0xb9	-71
21	0xd7	-41
22	0x28	40
23	0xa4	-92
24	0xa9	-87
25	0x42	66
26	0x81	-127
27	0x1d	29
28	0x09	9
29	0x00	0
30	0x3e	62
31	0x9a	-102
32	0xf7	-9
33	0x18	24
34	0xa7	-89
35	0xfc	-4
36	0xf4	-12
37	0x1a	26
38	0x2f	47
39	0xaa	-86
40	0x6e	110
41	0xff	-1
42	0xeb	-21
43	0x15	21
44	0xc1	-63
45	0xb4	-76
46	0x07	7
47	0xfe	-2
48	0x81	-127
49	0x13	19
50	0xbe	-66
51	0xed	-19
52	0x1f	31
53	0xdd	-35
54	0xe7	-25
55	0xe7	-25
56	0xd2	-46
57	0x10	16
58	0xb3	-77
59	0x6f	111
60	0x07	7
61	0xb9	-71
62	0xf2	-14
63	0x09	9
64	0xcc	-52
65	0xe4	-28
66	0xb8	-72
67	0xf6	-10
68	0xf2	-14
69	0xe8	-24
70	0xc5	-59
71	0xd8	-40
72	0x39	57
73	0xdd	-35
74	0xcb	-53
75	0x0d	13
76	0xcf	-49
77	0x15	21
78	0xf3	-13
79	0x45	69
80	0xec	-20
81	0x89	-119
82	0x17	23
83	0x7f	127
84	0xf5	-11
85	0x27	39
86	0xee	-18
87	0x43	67
88	0xdd	-35
89	0xab	-85
90	0xeb	-21
91	0xd3	-45
92	0xa1	-95
93	0xed	-19
94	0xba	-70
95	0x31	49
96	0xe7	-25
97	0xf8	-8
98	0x51	81
99	0x23	35
100	0xf7	-9
101	0x10	16
102	0xa7	-89
103	0x7f	127
104	0xe4	-28
105	0xc3	-61
106	0x55	85
107	0xf5	-11
108	0x9e	-98
109	0xf9	-7
110	0xc8	-56
111	0x0c	12
112	0x47	71
113	0xbe	-66
114	0x46	70
115	0x1f	31
116	0x16	22
117	0xff	-1
118	0xd3	-45
119	0x2a	42
120	0xd6	-42
121	0x0b	11
122	0xc2	-62
123	0xc1	-63
124	0x28	40
125	0x22	34
126	0xf3	-13
127	0x0b	11
128	0xc2	-62
129	0xf4	-12
130	0x81	-127
131	0xc3	-61
132	0xf9	-7
133	0x22	34
134	0x03	3
135	0xf0	-16
136	0xec	-20
137	0x35	53
138	0xf5	-11
139	0xe2	-30
140	0x0a	10
141	0x0b	11
142	0xfa	-6
143	0x20	32
144	0x18	24
145	0xee	-18
146	0x14	20
147	0x45	69
148	0x2d	45
149	0x03	3
150	0x0d	13
151	0x49	73
152	0x04	4
153	0x24	36
154	0x09	9
155	0xa2	-94
156	0xec	-20
157	0x2d	45
158	0x03	3
159	0x23	35
160	0xe6	-26
161	0x17	23
162	0x81	-127
163	0xb0	-80
164	0xe1	-31
165	0xc0	-64
166	0xfe	-2
167	0xa1	-95
168	0x0a	10
169	0xc0	-64
170	0xce	-50
171	0xa1	-95
172	0xb7	-73
173	0xf0	-16
174	0x7f	127
175	0x12	18
176	0xdc	-36
177	0xb1	-79
178	0x9c	-100
179	0xb3	-77
180	0xef	-17
181	0xc9	-55
182	0x65	101
183	0x81	-127
184	0xa0	-96
185	0xd8	-40
186	0xe1	-31
187	0x86	-122
188	0x1c	28
189	0xce	-50
190	0x3a	58
191	0xd2	-46
192	0x47	71
193	0xd6	-42
194	0x2d	45
195	0xf9	-7
196	0x24	36
197	0x1b	27
198	0x76	118
199	0xf5	-11
200	0xfb	-5
201	0x46	70
202	0xed	-19
203	0x06	6
204	0x7f	127
205	0xec	-20
206	0x07	7
207	0x7c	124
208	0xdd	-35
209	0xbe	-66
210	0xeb	-21
211	0xe4	-28
212	0x19	25
213	0xda	-38
214	0x4d	77
215	0x8e	-114
216	0xeb	-21
217	0xce	-50
218	0xe6	-26
219	0xb9	-71
220	0x4d	77
221	0x07	7
222	0xee	-18
223	0x13	19
224	0xc2	-62
225	0x48	72
226	0x29	41
227	0x81	-127
228	0x4c	76
229	0xf4	-12
230	0xf5	-11
231	0xee	-18
232	0xb1	-79
233	0x32	50
234	0x33	51
235	0x8c	-116
236	0x36	54
237	0x11	17
238	0x09	9
239	0xc1	-63
240	0x17	23
241	0x0f	15
242	0xd4	-44
243	0xf8	-8
244	0xfa	-6
245	0xc0	-64
246	0xc6	-58
247	0x27	39
248	0x49	73
249	0x21	33
250	0xf5	-11
251	0xeb	-21
252	0x2f	47
253	0x23	35
254	0x1f	31
255	0xa7	-89
